models/tinyvgg_model.pth (torch, 123791 bytes, 10 tensors)

conv_block_1.0.weight f4 [10, 3, 3, 3]
00000000: bafa e33d 766e 623d 8044 243e c108 30be
00000010: 6c83 733c 7c64 013e 7481 ddbd b57b f43d
00000020: 3312 073e 8057 e7bd d0ab 423d bd3e 053e
00000030: b6d1 06be 6309 bf3c 1005 18be fa6c dc3d
00000040: a314 acbd 8695 d13d 02bf d1bd 105f a7bd
00000050: 7727 7dbd e9f1 27bd 829d a7bd 29b7 18bd
00000060: c256 573d 588c 33be 9109 203e 3a89 333d
00000070: b051 1a3e 6ffd 083e be1f 49be 6783 b4bd
00000080: 492b 14be c599 933d bb5b e83d 01b2 183d
00000090: 6068 b33d aedc 2e3e 0ab9 93bd f90e f53d
000000a0: f6a4 4dbd 8980 413d ae03 b43d 6445 163d
000000b0: a28c d2bc 1bc5 29bd 7524 503d de10 8cbc
000000c0: 828a 3fbe db05 53bd e3d3 07be a68e f43d
000000d0: 185b 84bd 560e 50be 4630 00be 2866 5c3d
000000e0: 6e4a 003e e3a7 093e ba17 b73d ecfb abbc
000000f0: 9dcc 12be 033d 7f3d 3276 abbd 27c9 b3ba
00000100: c207 843c bd97 0fbc fcf7 523e b451 533e
00000110: 1cac 033d 3769 01be 46cf 4e3e e73b bd3d
00000120: 3669 823d f9db 343e 2344 5f3d a47f 823d
00000130: 52ab 4a3d 3452 513d d9ad bbbd 01d7 dfbc
00000140: fd30 523e bd13 fabd 347d 04be d43e fcbd
00000150: b035 22bd 57a5 9bbd eca8 afbd 8bc0 22be
00000160: 402d 5fbd 88c2 afbd 9550 153e e03d 0c3d
00000170: 3824 9c3d c781 d0bd 8a88 013e e364 053e
00000180: eb6e 3bbe 4e8e 2a3e d0e8 4dbe a4e0 33be
00000190: e75b ea3d abe9 0ebe a68e 9ebc 712e 40bd
000001a0: 8cc6 543d 7459 8bbd 7841 aa3c ee7f 083d
000001b0: c6b3 983d b706 fd3d a8c9 9cbc bde7 ffbd
000001c0: dadc dfbd e5f7 853d 72e0 ce3c 110a 593d
000001d0: feaa 01bd f8f1 11be 05ba 8b3d 8197 90bc
000001e0: 054f 8fbc b82e 15bd ea64 acbd 1537 f03d
000001f0: 9ba6 fcbc 309f 363e ad34 24be 32b7 20bd
00000200: 97b1 1fbe ce6a 7f3d 6f2f 90bd f34f 41be
00000210: 7e5b 373e 97f5 b53d 56da 193d 99d5 e6bd
00000220: 05c4 a03b 8f2a f7bd 23c3 66bd 8fd1 0f3c
00000230: b53b 803c e9f0 cf3d 375d ff3c a812 c0bb
00000240: 5089 c13c 3251 a5bd 6d9d b6bc 5919 04bd
00000250: e424 3e3e 7e31 d93d 545b 433e 8ed6 f33d
00000260: d31d db3d c96c e33c c283 353e 3a60 5d3e
00000270: fe80 cf3d 39e2 1d3d c019 a13d 6f01 03be
00000280: 7e26 a93d 0ac3 18bd 3176 49be 91e4 4dbd
00000290: 52d6 1cbe 5bdc 313d bd3f cfbd 2634 21bd
000002a0: 7752 8abd e7c9 84bd e73c 12be dddd 1d3e
000002b0: 70b9 16be ff84 1d3e 08d1 b53d 8219 6cbc
000002c0: 2b48 c33d e50d be3d 04c4 3e3e 9f92 4f3d
000002d0: cd0d fcbd 2b46 b43d 69d1 01be 2161 343e
000002e0: b77a 03be 950e 41be fe51 96bb 7671 0a3e
000002f0: ff7e 81bd 2695 f9bd ba94 bc3d 3e09 843e
00000300: db97 1dbc bd08 5cbd b99d f2bc b61b 30bd
00000310: 955d 0cbe 0875 623d 3714 19be 88bc 003d
00000320: 248e 21bd 1eaa ebbd bd3b 33be afc6 793e
00000330: 0435 2e3e 5c8f 11be 751d d33d d29e 71bd
00000340: 6f80 d73d 4364 113e 91ed 213d a861 16bb
00000350: 732d 4c3e 4c8a 05be 59f9 1cbd 7e2e 8c3c
00000360: 3dec afbc c622 f53d 33e0 40bd f6ca 373e
00000370: 1b9e 40be 8132 773d 62eb 043e 2af9 25be
00000380: 7abf 4dbe 233a ee3d 66f5 1cbe 2210 3bbd
00000390: 4f83 493d 5066 5b3d 5b50 c13d 2b8c a6bd
000003a0: 3bf5 183d f1b0 913d f845 8d3d 7ccd 23be
000003b0: 9dc1 eebd 71eb 14be 597c d33d bd22 7abc
000003c0: ea6a 4ebe 1280 12be cad9 253e 66a3 3dbe
000003d0: 31ab fa3d e525 07be 7217 023c 82cb 3a3e
000003e0: 120a 273d 48ee 02ba 2b89 0abe b2dd f8bd
000003f0: e3f4 0c3e 7c3f e63d f855 b5bc 1cd3 583c
0.11131807 0.055281125 0.16041756 -0.1719084 0.014862876 0.12635988 -0.10815707 0.11937658
0.13190536 -0.11295986 0.047527134 0.13012214 -0.13165936 0.023319906 -0.14845681 0.10762973
-0.08402374 0.102335975 -0.1024151 -0.081724286 -0.061805215 -0.041002188 -0.08184339 -0.03728405
0.052572973 -0.17534006 0.1562865 0.04383204 0.15070224 0.13377927 -0.19641015 -0.088141255
-0.14469637 0.072070636 0.11345621 0.037279133 0.08760142 0.1707637 -0.07213028 0.119657464
-0.050206147 0.04724172 0.08789764 0.03668727 -0.025701825 -0.04144774 0.050816018 -0.017097887
-0.1870518 -0.051519256 -0.13264422 0.119412705 -0.06462687 -0.20317969 -0.12518415 0.05380836
0.12528393 0.1344295 0.08940072 -0.02099415 -0.14335866 0.062314045 -0.08372153 -0.0013716564
0.01611698 -0.008764205 0.20602411 0.20636636 0.03214656 -0.12637793 0.20196256 0.09239941
0.06367724 0.17662038 0.05450834 0.06372002 0.04947979 0.051103786 -0.09164018 -0.027324202
0.205265 -0.12210796 -0.12938386 -0.12316671 -0.03960198 -0.075998954 -0.08577141 -0.15893762
-0.054486513 -0.08582026 0.14581521 0.034238696 0.07624096 -0.10181003 0.12649742 0.13026766
-0.1830403 0.16655847 -0.20108342 -0.17566162 0.1144331 -0.13956325 -0.01935513 -0.04691929
0.05194716 -0.06804171 0.020783171 0.03332513 0.07456164 0.123547964 -0.019139126 -0.124953724
-0.10930796 0.06541423 0.025253508 0.052988116 -0.03165721 -0.1425246 0.0682259 -0.017650368
-0.017493734 -0.036421508 -0.08417685 0.11729256 -0.030841162 0.17834163 -0.16035719 -0.03923721
-0.15595089 0.062357716 -0.07040297 -0.18878154 0.17905995 0.08884733 0.037561737 -0.11271209
0.00490618 -0.12068664 -0.05633844 0.00877799 0.01565347 0.10153372 0.031172378 -0.005861599
0.023625046 -0.080721274 -0.022291863 -0.032250736 0.1856876 0.10605143 0.19077808 0.119061574
0.10699048 0.027761834 0.17726043 0.21618739 0.10132025 0.03854582 0.078662395 -0.12793516
0.08259295 -0.03729538 -0.19673993 -0.050266806 -0.15316132 0.043423038 -0.10119579 -0.039356373
-0.0675401 -0.06483822 -0.14281045 0.15416665 -0.14719176 0.15382765 0.0887776 -0.014410378
0.09535249 0.09279994 0.18629462 0.05067694 -0.1230732 0.08802446 -0.1267754 0.17615177
-0.12839781 -0.18853219 -0.004587411 0.13519844 -0.06323051 -0.12186651 0.09208055 0.257883
-0.009618725 -0.05371927 -0.029616224 -0.042995177 -0.13707574 0.05528739 -0.14949118 0.031429797
-0.039442196 -0.11507057 -0.17503257 0.24392198 0.17012411 -0.14214844 0.10308353 -0.058989353
0.10522544 0.14198403 0.0395332 -0.0022946391 0.19939213 -0.13041037 -0.038323734 0.017112013
-0.021474952 0.11969523 -0.047088813 0.17948517 -0.18810312 0.0603509 0.12980416 -0.1620833
-0.20092574 0.116321824 -0.15327987 -0.045669682 0.04919749 0.05356437 0.09439155 -0.08132204
0.037343245 0.07113827 0.06898111 -0.15996355 -0.116580226 -0.14542939 0.10326452 -0.015267071
-0.20157972 -0.14306667 0.16196361 -0.18519363 0.122396834 -0.1319805 0.00794016 0.18241695
0.04078109 -0.0004994613 -0.13528888 -0.1215166 0.13765292 0.112425774 -0.02213572 0.013233926

conv_block_1.0.bias f4 [10]
00000000: 69d4 a73d 5d90 313e 8286 f6bd 5e64 5b3e
00000010: 71ca 123e 16a1 0e3d 53e0 723d dac6 67bc
00000020: db60 cfbd 94f3 483e
0.08194811 0.17340226 -0.12037374 0.21425006 0.14335038 0.034821592 0.059295963 -0.014146531
-0.101258956 0.19624168

conv_block_1.2.weight f4 [10, 10, 3, 3]
00000000: 1a3b 233d c9c0 4ebd 0249 babd b4d9 af3c
00000010: 9713 19bb 1f9e cdbd 7e96 36bd a7e4 88bd
00000020: bed2 45bd 9622 47bd b974 1dbd 5ba0 563d
00000030: 971d 863b d0cd 903d df94 babd fe57 9f3d
00000040: b646 37bd 0c35 dabc 057c 053e 06ce 70bd
00000050: 3b70 523d b199 d73d 4bef c7bc d6c4 823d
00000060: 5ae4 ae3d 0432 fbba 53b6 9f3d 668b 833d
00000070: d6bb c33c 6618 27bd 50fa e53d 8920 19bb
00000080: 980c c43c fe8b e3bc 530d 95bd 3634 8f3d
00000090: 2ee5 9f3c e5b5 183d a16c 883d 37a2 85bd
000000a0: da7f 6dbd de5d f6bd 07ea 533d 4d4f 30bd
000000b0: af60 4b3d 854a 2fbd e557 613d 6188 93bc
000000c0: 3fe7 193d aff6 7dbd 87f1 9a3d 75ff 933c
000000d0: 6ee6 e33d 928c b73d 2228 84bc 956a bebd
000000e0: b1b1 4bbd 40d2 dd3c fdfc 8cbd 623a 5abc
000000f0: e0d3 d3bc 2a3d 92bd 2de6 fb3b 783d 453d
00000100: f2da 6ebd 4cc0 3bbd 8f51 ae3d 278e da3c
00000110: 2dce 4bbd ee29 783e d5d4 3d3c 28cd a63d
00000120: 8690 403d 7325 9cbd b93f f8bc f716 edbd
00000130: 75a4 97bc f419 ea3d 126d 9cbd 094b b1bd
00000140: b2f3 3f3d e5bb 263d 387b 98bd 2ebc 33bd
00000150: ae5f aebd 9ba5 e93b e7f7 e03c 3462 cabd
00000160: a762 d0bd 4994 22be 679f 34bb 1c04 79bc
00000170: 4b40 1fbd 9b23 313b 41b0 1dbe 595a 693b
00000180: 639e 31bd ddd1 dabd 5458 79bd 9996 11bc
00000190: ba7d deb9 0b3c 8b3c be2b c43d c125 74bc
000001a0: 82a1 b4bd 2495 ca3b 82b9 d43d 1bba 73bc
000001b0: fafc 453d 3f52 ed3d 280c c33d cff6 1e3c
000001c0: 0b9b f33d dccf dc3d 60b1 9d3d bb3f 063e
000001d0: 92df bf3d ed67 62bb 6a9b cd3d 0423 0b3c
000001e0: 4b2d b33c d6bc e83d 29f0 b63d 6250 953c
000001f0: 0e2a 49bd f140 ce3d f873 323c 03f1 cabd
00000200: b899 9fba fa6f 983d d8a0 95bd 9c39 9c3d
00000210: c62f 193b 3ce8 70bd 2be4 febd 5329 473d
00000220: 9e88 78bd e991 843d e9b7 21bd addf c9bc
00000230: f2fc f13d 324f 80bd d52c 033e 76f6 51bd
00000240: a603 eebd 4dec 00bd 58f0 00bc 2b44 c93c
00000250: 5576 a9bd 220e b93d f785 953d 2963 a83d
00000260: 84ad 85bd 7207 6dbc 762b 87bd ba07 30bd
00000270: 244e 223e 79f4 38bd c380 8a3d c1b4 bc3d
00000280: bcbe b7bc 50c9 23ba ad19 99bd ce37 a4bd
00000290: 4450 9dbd abc1 79bd 1ba4 7a3d 3bf1 88bd
000002a0: 7ea1 e5bc 0ce4 e1bd 4ade ca3c b13f 64bc
000002b0: a596 b63b f4e5 8d3d b130 e2ba b260 e9bd
000002c0: cd9f a63c 6e94 d1bd 47e4 97bd 5aa2 8bbd
000002d0: 54e9 483d 5c62 dd3b f183 cbbd 4b5d aebd
000002e0: 0994 033c 8a16 98bc f768 9dbb ca97 083c
000002f0: 94f1 cbbd 19f1 94bc 99cc 5a3d 6bfb 673d
00000300: 10f0 8fbc da12 4bbd a7dd c7bd 01f4 cdbd
00000310: 86ad 473d 3845 393d eaa3 133d bc81 983d
00000320: 0bf4 063d b476 f03c cfed b53b e640 26bd
00000330: 8220 9cbc 9064 81bd 6a68 f9bc 0a9e a43d
00000340: 4438 033d 7424 95bc e026 303d a0e5 f73c
00000350: e01e c9bc a8da 5d3c a1f1 733d 8942 aa3b
00000360: a288 803d d369 e13d 692a 5ebb f23e 62bd
00000370: 02f4 0dbd 74ba 403c dbc2 d0bd 56bc 8a3d
00000380: 3fb5 9fbd 851b a03c 52aa afbc 8bc1 0d3d
00000390: f5e7 e7bd a11f a0bd 98df d7bd 18bb 513d
000003a0: 45b0 9c3d 4557 333d 5177 343c cb73 823c
000003b0: 9d74 db3c d6f5 6dbd f447 db3c 5bdb 823d
000003c0: 87d2 09bc 3127 b3bd ded3 28bd 7ee5 ef3c
000003d0: 1d6c 473d 16fe 67bd b7b5 d93c e1c9 47bd
000003e0: 5901 993d ba16 433b a68f 78bd b335 c3bd
000003f0: c450 50bd 6441 ccbd 1080 babd a282 883d
0.039851286 -0.050476823 -0.090959564 0.021466114 -0.0023357624 -0.10039925 -0.044577114 -0.06684237
-0.048296683 -0.048616968 -0.038441394 0.05239902 0.004092883 0.070705056 -0.09110426 0.07780455
-0.04474517 -0.026636623 0.13035591 -0.05879023 0.051376563 0.10527361 -0.024406096 0.063852
0.08539648 -0.0019164686 0.077984475 0.064230725 0.023893278 -0.040794753 0.11229384 -0.002336534
0.023931786 -0.027776714 -0.07277932 0.0699238 0.019518461 0.037282843 0.06661344 -0.06525081
-0.057983257 -0.120296225 0.051736858 -0.043044377 0.04965275 -0.042795677 0.055015463 -0.018009366
0.03757405 -0.062002834 0.07565599 0.018066147 0.11127935 0.089623585 -0.016132418 -0.09297673
-0.049730007 0.027077794 -0.06884191 -0.013319584 -0.025857866 -0.07140572 0.007687351 0.048154324
-0.05831427 -0.045837685 0.0851165 0.026679112 -0.04975717 0.24234745 0.011586388 0.08144599
0.04701283 -0.0762433 -0.030303823 -0.11576646 -0.018511036 0.114307314 -0.07637991 -0.0865689
0.046863265 0.040706534 -0.07445377 -0.043880634 -0.08514343 0.0071303374 0.027461959 -0.09882012
-0.101750664 -0.15876879 -0.0027560832 -0.015198734 -0.038879674 0.002702928 -0.15399267 0.003560683
-0.04336394 -0.106845595 -0.060875252 -0.008886003 -0.00042436813 0.016996404 0.09578656 -0.014901579
-0.08819868 0.0061823297 0.10386945 -0.014875914 0.04833696 0.11587953 0.09523803 0.009702398
0.118948065 0.107818335 0.07699847 0.13110249 0.093688145 -0.0034546808 0.100394085 0.008492235
0.021872183 0.113641426 0.08932526 0.018226806 -0.049112372 0.1007098 0.010891907 -0.099092506
-0.0012176549 0.07443233 -0.07306069 0.076281756 0.0023374422 -0.058815226 -0.12445863 0.048623394
-0.060677163 0.06473143 -0.03948203 -0.02464279 0.118158236 -0.06265105 0.12810071 -0.051260434
-0.1162179 -0.031475354 -0.007869802 0.024568638 -0.08274523 0.09035899 0.073009424 0.08222038
-0.06527236 -0.014467107 -0.066000864 -0.04297612 0.15850121 -0.045155022 0.067628406 0.092141636
-0.022429816 -0.00062479544 -0.074756004 -0.080184564 -0.07681325 -0.06097571 0.06119166 -0.06686636
-0.028031107 -0.110298246 0.024764199 -0.013931201 0.0055721574 0.06928626 -0.0017256943 -0.11395396
0.02033987 -0.10233389 -0.07416587 -0.068180755 0.049050644 0.00675611 -0.09937275 -0.08513888
0.0080309 -0.018565435 -0.0048037726 0.008336971 -0.09958187 -0.01818137 0.053417776 0.056636255
-0.017570525 -0.049578525 -0.09759074 -0.10056306 0.04874947 0.045232028 0.036044993 0.0744662
0.03294758 0.029353477 0.0055520306 -0.040589236 -0.01905847 -0.06318009 -0.030445296 0.08037956
0.03203608 -0.018205859 0.043005824 0.03026086 -0.024550855 0.013540901 0.059556607 0.00519592
0.06276061 0.110065125 -0.003389979 -0.05523581 -0.034656532 0.011763204 -0.10193416 0.067742035
-0.07798242 0.019544372 -0.02144352 0.034608405 -0.11323539 -0.07818533 -0.10540694 0.051203817
0.07650808 0.0437844 0.011014775 0.015924355 0.026789004 -0.058095776 0.026767708 0.06389495
-0.00841201 -0.087477095 -0.041217677 0.029284235 0.04868709 -0.0566388 0.026575906 -0.04877651
0.0747096 0.0029768185 -0.06068387 -0.09531727 -0.050858274 -0.0997341 -0.09106457 0.06665541

conv_block_1.2.bias f4 [10]
00000000: abd1 c73d 5a08 c33b 660f c1bd 5793 8dbd
00000010: ab87 d63d eb2d 743d 6084 f33d 9960 513d
00000020: 33e5 053e ac2c 5fbd
0.09756788 0.0059519233 -0.09426765 -0.069128685 0.10475095 0.059614103 0.11890483 0.051117513
0.13075714 -0.05448596

conv_block_2.0.weight f4 [10, 10, 3, 3]
00000000: 0d2b a4bd bbbd 00bd 25e4 e93d d948 ab3c
00000010: 0a9e 9cbd 2dfe b93d 7bdc 59bc 735b 303b
00000020: 4487 34bd 522f c53c df57 413d 9c69 643d
00000030: 6695 a6bb 6386 36bd a21b f53c d11c 96bc
00000040: 654b 9fbd ad2f 4bbd fdb9 a3bd ed33 a73c
00000050: 5979 8cbd fa71 7fbc bc33 8e3d 693f a0bd
00000060: 1be8 c0bd 8481 96bd b075 673d da3f 7bbc
00000070: 3bd0 803d 16da 25bc 44da 85bd e54c 8e3d
00000080: eccb c63d 4c0d c23d 0014 cc3d afa5 b03d
00000090: 074d 103e 6472 ac3c 767d f93d d18a fb3d
000000a0: 372c ffba 2067 41bd c9df 63bc 0a83 0e3e
000000b0: c3ac af3c 98cb 18b9 27b5 d73c d624 6f3d
000000c0: 1012 90bd 2052 873d 628e c43d b7ac a7bd
000000d0: 315a 63bd d8dd 3dbd 2c18 1dbc 2681 273d
000000e0: dc5c ccbd 02b1 f73d 9bc4 583d 17d5 22bc
000000f0: b9ec 013e abe5 023d 1693 3e3d cba4 c6bc
00000100: 98b4 7bbd 7d06 4abd 4d38 b0bc 79ca 95bd
00000110: b28b b6bd a58d af3d 0440 f03b 8712 b2ba
00000120: c59c 9d3c 4a3e cc3d 1ee8 08bb efc7 d03d
00000130: 3ce6 d63d f46c 313e c0d0 8c3b 6ec8 cb3d
00000140: 3647 f23c 4fce 1e3b 13f9 f33c 879f 153e
00000150: 5223 ec3d 3f9c 8d3d 902e 70bd 47b5 ff3d
00000160: 7d16 d6bc 7ecd e6bc ac8f f83d 9fd5 063e
00000170: f1aa ed3c 9385 ec3d 147a 2bbd e7ed ae3d
00000180: ae58 b43d f830 953d 2b97 a4bd e448 f13d
00000190: 63d5 013e 8a0d 0d3e 2111 1a3d 32ca ab3d
000001a0: 29a0 0b3e 17ee a03d 83bf 67bd 9be5 483c
000001b0: b4dc 9d3d 1b5f 213a 39f3 2c3d 0c43 7a3c
000001c0: ceed c3bd 9379 d93d 5633 923d 17c1 22bd
000001d0: 1312 6c3d c295 5cbd 309d 88bb fb93 f33c
000001e0: 1b50 dabc 5ef9 65bd 2b5d 8bbd d835 d93b
000001f0: e02c b8bd 1112 5f3d 0924 e0bd 12a6 a6bd
00000200: 7dc6 9f3d d4f2 783d 26e7 10bd e105 873c
00000210: c15a 32bd cc8c b1bd f414 283c b678 223e
00000220: 46f5 da3d a6a1 aabb 1486 8c3d 8599 d33d
00000230: dce2 be3c bf0c e03d d129 89bc 7a03 16bd
00000240: aed5 793c f03b 053d 68e8 cd3d 99ba 59bd
00000250: 05eb 0d3d d758 0dbc 116a 2d3d e305 03bd
00000260: be20 423d 88df 013e abf2 043e 9299 f53d
00000270: 4402 883d ba8e 52ba 72d9 d83d 1d03 153d
00000280: 2b7c 973c 85ae ac3d 2e6e 563c 3a96 a3bd
00000290: f2bf e8bd 297c 10be 7a11 9ebd a950 c53b
000002a0: b9a1 9abd 20a5 0dbe afa7 663c ca77 8bbd
000002b0: 5972 f2bd 0b2f b6bd 163d ccbd 5351 16be
000002c0: 7594 e6bd 296c 643d d8dd be3b 69ad acbd
000002d0: 4166 723d cf39 95bd 0891 71bd 053b 2a3d
000002e0: 2b3d a93d 6d56 7f3d 791c 933d a100 b43d
000002f0: b9aa b9bd a04c b93c 9e7b 9ebd 57a5 b4bd
00000300: 0f3b 80bd 14b7 c0bc 0cef e9bd bbba e93c
00000310: ac96 74bc 6671 2ebd b5cf b43d d85e a33d
00000320: 57a8 b83d f55d 88bc 254b dcbd e956 0ebc
00000330: c7e6 ac3c 7266 3d3b 48f4 d4bc af26 16bc
00000340: 7971 a5bd c05e d7bd 4866 ca3c 07f0 563c
00000350: a429 683d 8209 f33c 3101 bebd 6305 833d
00000360: 0517 ba3c d1f1 573c 1e51 8f3d dad6 6b3d
00000370: 33ab 99bc f5c2 0b3d 754a 783a c768 5cbd
00000380: b5e8 a8bd e116 883c fd7d 0d3d bf3b a23d
00000390: be7b aabd deaf 06bd 50f1 c4bc 4190 573c
000003a0: e7f4 6cbd c532 b23d cb98 12bd 12f5 243d
000003b0: 6900 2abc 9203 963d c11b c0bc d1d6 843d
000003c0: cc1c d5ba 9c55 bbbb 2635 843c 9acb 773b
000003d0: 7f59 80bd 3b8f 00bc 3b1b bdbd 0377 203d
000003e0: a41b 9abd 92f7 c4b9 14b4 76bc 1c7e a4bc
000003f0: 3050 93bd a07b 18bc a065 93bd 8865 a13d
-0.08016024 -0.03143094 0.11420468 0.02090876 -0.07647331 0.09081683 -0.013297196 0.0026909977
-0.04407431 0.024070416 0.04720294 0.05576478 -0.0050837277 -0.044561755 0.029920403 -0.018324288
-0.07778052 -0.049606014 -0.07994459 0.020410502 -0.06859083 -0.015591139 0.06943461 -0.078245945
-0.094192706 -0.07348922 0.05650872 -0.015335048 0.06289717 -0.0101227965 -0.065357715 0.0694826
0.09706864 0.094751924 0.09964752 0.08625352 0.14091884 0.02105064 0.12182133 0.122823365
-0.0019468133 -0.04721749 -0.013908335 0.13917175 0.021444684 -0.00014571694 0.026331497 0.05838474
-0.07034695 0.06607461 0.0959747 -0.081872396 -0.055505935 -0.046354145 -0.009588283 0.04089465
-0.09978649 0.120943084 0.052921873 -0.0099385 0.12687959 0.03195731 0.04652699 -0.024248501
-0.061451524 -0.049322594 -0.021511221 -0.07314009 -0.089133635 0.085719384 0.00733185 -0.0013585844
0.019239793 0.09972818 -0.0020890306 0.10194384 0.104931325 0.17326719 0.004297346 0.09950338
0.029574972 0.0024231856 0.029781854 0.14611636 0.11530174 0.06914567 -0.058638155 0.12485748
-0.02613377 -0.028174158 0.12136778 0.13167427 0.029012175 0.11548915 -0.04186447 0.0854147
0.08805977 0.07284731 -0.080366455 0.11781481 0.12679057 0.13774696 0.03761399 0.08388175
0.13635315 0.07857912 -0.056579124 0.012261773 0.077081114 0.00061558344 0.042224143 0.015274774
-0.09566842 0.106188916 0.07138698 -0.039734926 0.057634424 -0.053853758 -0.004169129 0.029733649
-0.026649525 -0.05614602 -0.0680488 0.006628733 -0.08992934 0.05446059 -0.10944373 -0.08137144
0.078015305 0.060778454 -0.03537669 0.016482295 -0.04354358 -0.08669433 0.010258902 0.1586636
0.106913134 -0.0052072583 0.06861511 0.10332016 0.023301534 0.10939931 -0.016743572 -0.03662441
0.015248699 0.032527864 0.100540936 -0.05315647 0.03464796 -0.008627138 0.04233748 -0.031988036
0.047394507 0.12682927 0.12983195 0.11992182 0.06641057 -0.0008032132 0.105883494 0.036379922
0.018491825 0.084317245 0.013087792 -0.07987638 -0.11364736 -0.14109863 -0.07718177 0.0060215783
-0.075503774 -0.13832521 0.014078065 -0.06809957 -0.11838216 -0.088956915 -0.09972589 -0.1467946
-0.11258785 0.055767212 0.0058247857 -0.08431513 0.05917955 -0.07286417 -0.058976203 0.04156019
0.0826362 0.06233828 0.07183165 0.087891825 -0.09065766 0.022619545 -0.07738422 -0.088205986
-0.062612645 -0.023524798 -0.11422548 0.028531423 -0.014928501 -0.042588614 0.088286795 0.079770744
0.09016483 -0.016646365 -0.1075652 -0.008687713 0.021106137 0.0028900173 -0.025995389 -0.009164496
-0.08078284 -0.10516119 0.024706975 0.01311875 0.056680337 0.02966762 -0.09277571 0.06397512
0.022716055 0.013180212 0.06997894 0.057577945 -0.018758392 0.034121472 0.0009471544 -0.05381086
-0.0824751 0.016612472 0.03454398 0.07921552 -0.08324383 -0.032882564 -0.024040848 0.013156951
-0.057850745 0.0870109 -0.035790246 0.04027278 -0.010376074 0.073249 -0.023450734 0.064862855
-0.0016259192 -0.0057169925 0.016138624 0.0037810565 -0.0626707 -0.007846649 -0.092337094 0.039176
-0.07524803 -0.00037568487 -0.015057582 -0.020079665 -0.07193029 -0.009306818 -0.07197118 0.07880694

conv_block_2.0.bias f4 [10]
00000000: 32e9 ed3d d6be b73c e65c a2bd b302 bd3d
00000010: a436 bebd e2e1 043e f956 a43d f52f 00bb
00000020: 25ba 1e3d 1ade 123d
0.11616744 0.022429865 -0.07927875 0.092290305 -0.092877656 0.12976792 0.08024401 -0.0019559835
0.03875174 0.035856344

conv_block_2.2.weight f4 [10, 10, 3, 3]
00000000: 8a7e d2bd 7779 9ebd 2699 a5bd 2f8c 03be
00000010: 1597 12bd cae9 22bd d04f f2bd b4f3 453d
00000020: beba 68bd 1044 1dbd 52c4 cabd def1 053d
00000030: 030d ab3d 6ed6 553d 6ec9 c93d b51d b23d
00000040: 6f65 8abc cf7a 993d a648 a93d 6dfb 253d
00000050: 0e71 093d 6626 a43d a01b dabc 730f fdbc
00000060: 3e83 b3bd 1d24 92bd 3892 f83c 9e3d a0bc
00000070: f8cb 8d3d bdd8 a1bd 0577 8bbd 08dd 59bd
00000080: 09d1 ddbd 66f7 743d 72f6 f1bc fe7c a8bc
00000090: 8542 853c dfab 4f3d 1893 7dbc db98 233d
000000a0: d5c8 9dbd 4fca 26bd defe 87bd 5809 a63d
000000b0: 0a58 10bd 384b cbbd d2a0 1cbd bd4c a83d
000000c0: a0e4 c4bd 56bc e2bd ab12 18bb 4ea8 9abc
000000d0: f7a5 03be a610 2cbd c135 fc3c 2dbc 903c
000000e0: 0d14 0ebe 025d f53c 9afa 02bd 2958 76bd
000000f0: 0655 10be 442e 1d3c f888 ee3c 8344 c73d
00000100: dbdf 503a 98b1 823d 7c96 87bd b110 3fbd
00000110: 05e6 503d 7825 bfbd 45d7 4abb e0c9 923d
00000120: 7099 1bbd 6016 38bd d14c ec3c be25 13be
00000130: 94f9 b5bd baef 263c e343 203c 4482 90bc
00000140: f8fc 0ebd dc37 15bd 8edc ae3d 696a 26bc
00000150: a614 b03c fb2c 4cbd e273 e1bd 3415 a13d
00000160: f4ee ebbc ce35 01bd 4219 a7bd 9944 83bd
00000170: 793a 863d 511c 0a3c 4e54 8abd 48c1 05bb
00000180: 6e2d c43d b826 a13d 2c1c 9cbd f0de 8b3d
00000190: 3f69 d6bc 85a4 01bd e346 21bd e8bd 41bd
000001a0: a321 89bd 5a8f 61bd 9e6f 1bbd a0d0 e9bb
000001b0: fcee acbd 7e12 81bd ddc6 c03d c2d6 603d
000001c0: e53a ad3d b173 d73d 002c 1abb f3ab 4fbd
000001d0: 46a7 3a3d 6db3 cfbd a730 963d 8a6c 8f3d
000001e0: a88f 98bd ea0c a93d fcce 1dbd eaaa b23c
000001f0: beb5 86bc d06a 2abd 0da1 ae3d 4f95 963d
00000200: 3a9f 0d3d bfff b13d 2855 c5bc b685 463d
00000210: 861b a6bd ad05 a93d 74c2 c2bc 9802 89bd
00000220: 823e 06bd 5259 b03d 8f18 fd3c 4706 c3bd
00000230: ce62 d9bd 4d78 4ebd e4e2 a8bd 71e2 c23d
00000240: 24c8 e5bd d47a e4bd f624 62bd 4e7a 59bd
00000250: 889b 2a3d b536 d3bd 5510 98bd e3f5 563d
00000260: 3e12 c1bd 180d d9bc 1232 d7bd 1aa2 763d
00000270: fcbc 8ebd 5fb8 b53d ec41 e73c f2ae 893c
00000280: f979 a3bd dec5 91bd 165f e9bd 9f30 a93d
00000290: 3fe3 17bd 07d7 f43c 8738 503d 7e33 9e3c
000002a0: 270e d1bd eb52 a4bc b64d bb3d d0c6 3bbd
000002b0: ce8a b13d 4a14 6c3c 252e a63d a38c 913c
000002c0: 3a64 d0bd c306 54bc 7c45 42bc ced8 7f3d
000002d0: df85 043d 3e50 ddbd e9dd 9fbd 131a 1c3e
000002e0: a38e 87bd 7153 0dbe 598b 593d 754a 953c
000002f0: 50f1 48bd 4e4c 0abd ddcf a3bd b603 1e3d
00000300: c5df 9dbd adc8 053d 7f19 6b3d ee1e b5bd
00000310: b1cc 203d 8fe5 103e a01e 1fbd 538e 5f3d
00000320: 45cd cfbc 0d0b 63bd 40ab 9ebd e9ee 5e3d
00000330: b974 1bbd 8b35 82bd f3ef 203c f2c6 57bd
00000340: 2f51 d53d f8a3 c4bd d875 6a3d 4734 50bc
00000350: 4f82 8a3d b4f3 0d3d 19e2 0cbc 633c a73d
00000360: 56a2 c33c 38f8 abbd 168d ad3d 24d5 febd
00000370: fd0b 703d 0a62 203e dfac df3c eb95 91bc
00000380: 71d3 ab3d 7f61 9c3c 900b 7c3c 5045 243d
00000390: 01df e13d 9471 aebd f26b a8bc 2e44 053e
000003a0: 8de6 01bd 61ed 06be 472f ef3c 4d0c 82bd
000003b0: 6058 763c 2e66 c93d 01ee b3bd c5c6 2bbc
000003c0: 061d df3d 67f9 f7b9 ca33 94bd 5cb0 e03d
000003d0: bf71 96bd 3cbe 12bd bd89 8dbd 5bee 8ebd
000003e0: 8d46 c0bc ce22 afbc c336 08be 0829 b8bd
000003f0: ded3 f73d 8c3f 27bc 8de6 b0bc bb67 a3bc
-0.10278042 -0.07738011 -0.08085851 -0.12846445 -0.035788614 -0.03977374 -0.11831629 0.048328117
-0.056818716 -0.038394988 -0.099007264 0.032701366 0.08352091 0.05220645 0.09852873 0.086970724
-0.01689407 0.07494127 0.0826581 0.04052298 0.033555083 0.080151364 -0.0266245 -0.030891156
-0.08765267 -0.07135794 0.03034316 -0.019560631 0.069236696 -0.07902668 -0.068098105 -0.053189307
-0.10830886 0.05980625 -0.02953646 -0.020567413 0.01626707 0.05070102 -0.015476964 0.039940696
-0.07704321 -0.04072028 -0.06640409 0.08107251 -0.03524021 -0.09926456 -0.038239308 0.08217762
-0.09613919 -0.110710785 -0.0023204486 -0.018879082 -0.1285628 -0.042008065 0.03078735 0.017667854
-0.13874836 0.029951576 -0.031977274 -0.06014267 -0.14094934 0.00959355 0.029118046 0.097298644
0.00079679274 0.063815296 -0.066204995 -0.046646778 0.051000614 -0.093333185 -0.0030951065 0.07167411
-0.037988126 -0.044943213 0.028845223 -0.14369866 -0.08885494 0.010188991 0.00978181 -0.01764024
-0.03490922 -0.036430225 0.08538161 -0.010157206 0.021494221 -0.049847584 -0.11008431 0.07865372
-0.028800465 -0.031545453 -0.081591144 -0.06409568 0.065541215 0.008429603 -0.06754361 -0.0020409394
0.095789775 0.07868713 -0.07622561 0.06829631 -0.026173232 -0.03165104 -0.039374243 -0.04730025
-0.06695869 -0.05506835 -0.037948243 -0.0071354657 -0.0844402 -0.06302355 0.0941293 0.05489231
0.08458499 0.10520113 -0.0023524761 -0.050701093 0.04556968 -0.101416446 0.073334984 0.07003124
-0.07449275 0.08254416 -0.038527474 0.021810014 -0.016444083 -0.04160577 0.08526812 0.07352697
0.03457568 0.08691358 -0.024088457 0.04846736 -0.081107184 0.08253036 -0.023774363 -0.06689948
-0.032774456 0.086107865 0.0308955 -0.09522682 -0.106145486 -0.050407697 -0.08246401 0.095158465
-0.112198144 -0.1115624 -0.05521103 -0.053095154 0.041652232 -0.10313169 -0.0742499 0.05248059
-0.094273075 -0.026495501 -0.10507597 0.060213186 -0.0696964 0.088730566 0.028229676 0.016807053
-0.07982249 -0.07117818 -0.11395089 0.08261227 -0.037081953 0.02988769 0.05083516 0.019311663
-0.102077775 -0.02005907 0.091456816 -0.0458439 0.08669053 0.014409134 0.0811427 0.017767256
-0.10175367 -0.012941065 -0.011857387 0.06246262 0.032354232 -0.108063206 -0.07805998 0.15244322
-0.06619003 -0.13801362 0.053111408 0.01822398 -0.04905826 -0.033764176 -0.07998631 0.038577758
-0.07708696 0.032662082 0.05739736 -0.0884379 0.03925771 0.1415007 -0.038847566 0.05457909
-0.025366435 -0.05543046 -0.07747507 0.05442706 -0.037953112 -0.06357869 0.009822833 -0.052679963
0.10415875 -0.09601587 0.05724129 -0.012707776 0.06763136 0.03465624 -0.008598828 0.08165815
0.023881119 -0.08396953 0.08474176 -0.12442997 0.058605183 0.15662399 0.027304111 -0.017771682
0.083899386 0.019089459 0.015383616 0.040105164 0.11028863 -0.08517757 -0.020559285 0.1301429
-0.03171401 -0.1317649 0.029197348 -0.063500024 0.015035719 0.09833942 -0.0878563 -0.010484402
0.10894208 -0.0004729733 -0.072364405 0.10971138 -0.07345914 -0.035825953 -0.06911037 -0.069790564
-0.023471141 -0.0213789 -0.1330214 -0.08992201 0.12100957 -0.010208022 -0.02159431 -0.019946923

conv_block_2.2.bias f4 [10]
00000000: 7c45 343d 67ab 78bc d201 d5bd 3695 083a
00000010: dbba 833d 642d 6c3d 50db e43c 6c36 a6bd
00000020: 5778 43bd dfd1 c3bc
0.044011578 -0.015177584 -0.10400738 0.00052102224 0.06432124 0.057660475 0.027936608 -0.08115849
-0.047722187 -0.023903785

classifier.1.weight f4 [16, 1690]
00000000: 25ee bebc 4e26 5abc 79db e2bb 060a bf3b
00000010: 9068 99bc c471 1ebd a884 d6bc cf6d 28bd
00000020: 9bf2 8dbd 01b9 82bd be07 3bbd e7f8 dd3a
00000030: 22ba 9d3b 81a6 883c fe0e 09bb d70c 0e3d
00000040: f76b b7bc 6892 fabc 1f2f 5bbd b9a1 7fbd
00000050: 3283 01bd cc08 a8bd 64d8 39bd 1ff8 18bd
00000060: c12a 53bc 2d53 b4bb b6f2 823c 8531 ad3c
00000070: 55ed ad3c bdb5 35bc f796 89bc 3200 bcbb
00000080: f42b f9bc e880 4e3b d768 5cbd 88f6 b6bc
00000090: 00c9 14bd a3c3 ca3c 623a e03c 1058 f83c
000000a0: 61b5 fd3c 7340 8bbb 2e13 b33c 083d 20bd
000000b0: f833 2bbd 722c 39bc 971b ec3a 0779 4fbd
000000c0: 1322 86bc f142 25bc d3f5 10bd 8852 b1bc
000000d0: 0c0a d3bb fdb9 9dba 9c4f 87bc 925c 50bc
000000e0: 5cd8 4ebd 196a dbbc 2f75 f6bb c577 52bb
000000f0: c498 a23c fd3c c33b ae59 acbc d3a2 7f39
00000100: 78c9 e9bc 8306 f73c 3689 783d 3013 193d
00000110: 1cba 2fbc 41e7 a23c 2f73 e83a 9c76 5abc
00000120: 34ce be3a 916f 1b3c 945a 52ba 1ca3 29bc
00000130: d8ed 113d 8438 a13c 0974 923c 6b6c 2f3d
00000140: 9f0c 5a3c 36fc 6fbd 63c9 48bb f53b e6bc
00000150: abb1 f0bc a02c 95bc 813c bf3c 5874 d73c
00000160: 6e53 13bb 6200 d9bb b45f a939 a00c 9f3d
00000170: f254 393d 1aa5 293c 58fe 0bbc 7e57 8dbc
00000180: b7f1 e6bc 71ca 94bc 7073 abba ed95 103d
00000190: 940c 063d bdb2 2e3c 9393 043d 2ad2 bf3b
000001a0: 81ff 263d 353c e73c d25d 163c f7ec c3bc
000001b0: 006c 383d 7420 f03c cc25 173a ff6c febb
000001c0: 5c9b 08bd 962f 213d 8976 193d d44c 433d
000001d0: 0d33 fb3c 905b fc3c 14eb 15bc 9c85 afbc
000001e0: ae1e eebc e6b5 cdbb 7f99 9cbb 03f6 0dbc
000001f0: 769b 0abb c0ec 1abc cf44 083d d636 e8ba
00000200: a4ff 8f3b c2a6 0a3d d683 f73b 2999 0a3b
00000210: 1c74 bfba d505 e73b 7c3e 0f3c 6812 ec3c
00000220: ef5c 153c c90a e1bb 9488 273c 84e3 443d
00000230: ff24 bf3c 0264 133d d18e 2f3c e34c c0bc
00000240: 443a 233c 3e9e b93c 19af 8bba 2e51 aa3c
00000250: 8f24 abbc 4e56 d1bb 472c 88bc c314 e23c
00000260: 8523 c03c 0e3e 183d 0b81 ca3c 586a 013d
00000270: c685 cbbc 9dd1 9c3c cab8 933c 7e7a 343d
00000280: 1d4a 973c f18e c7bc 3513 95bc 4221 1ebd
00000290: 1742 fabc f030 4abc 85a7 fb3c 0803 503d
000002a0: 6409 b73c a06d 9d3b ce13 473c a137 8bbc
000002b0: 004d a1ba 2a2a 73bc 4954 ac3c 60bc 26bc
000002c0: 7a0e 583c 9bfa 91bc 901a c13a 9cce dc3b
000002d0: 6bde 2dbc 4ae8 4a3c a975 7abc 969e 1a3c
000002e0: 01a5 c13c c53f c13c 7741 1abc 6036 4eba
000002f0: 0808 673b 3f19 893c fa92 513c 04c9 dc3b
00000300: a8f8 9bbc e878 eebb d2eb 04bc 0089 123a
00000310: c3f1 8a3c 6801 ca3b 867e 623c 9082 99bc
00000320: 9a1c 003c 3d2f b3bc eba2 893c f199 2fbc
00000330: 5a16 6b3c 6097 193b 85bd bf3c 6621 653c
00000340: f142 b23c 2aed 4f3c 2756 913c c044 e43a
00000350: f08b 553b 7656 38bc 581b 5fbb 47af 853c
00000360: 6ac5 0c3c d254 05bc 5819 863b 6521 49bc
00000370: 60a2 e9ba 50ce 05bb f0e7 873a 6ec7 2a3c
00000380: 4004 5dbb e8ce 6f3b 8370 933c 46e2 3fbc
00000390: c6ed 7c3c ebf1 b73c f015 b9ba 08fd a1bb
000003a0: 7ed8 463c e01f 463b d970 93bc 854c 6dbc
000003b0: ac27 dabb f614 a6bc 3a41 7f3c 7602 96bc
000003c0: 6eec 36bc 21b7 b23c 9094 933a f42f f1bb
000003d0: 5ef4 9ebc 524f 343c 24f7 3abc 4ea1 143c
000003e0: cc29 e0bb cc52 b6bb 327b 4d3c d98b c03c
000003f0: e8ef a3bb b27c bfbc 0752 77bc b272 003c
-0.023306916 -0.013314797 -0.006923136 0.0058300523 -0.018726617 -0.038682714 -0.026186302 -0.041120347
-0.06931039 -0.06382943 -0.04566168 0.0016935141 0.0048134485 0.016680958 -0.0020913477 0.034680214
-0.022390349 -0.03058739 -0.053511735 -0.06241009 -0.03161926 -0.08204803 -0.04537238 -0.037346
-0.012888611 -0.0055030794 0.015984874 0.021141777 0.021231333 -0.011090693 -0.016795618 -0.005737328
-0.030416466 0.003150994 -0.05381092 -0.022334352 -0.0363245 0.02475149 0.02737159 0.030315429
0.030970277 -0.0042496263 0.021859732 -0.039120704 -0.041797608 -0.0113021005 0.0018013594 -0.05065253
-0.01637367 -0.010086761 -0.035390686 -0.0216458 -0.0064404067 -0.0012033578 -0.016517453 -0.012717383
-0.050499305 -0.02678399 -0.0075212936 -0.0032114845 0.019848235 0.005958198 -0.021038856 0.00024379352
-0.02853845 0.030154472 0.06067773 0.037371814 -0.010725524 0.019885661 0.0017734523 -0.013333943
0.0014557303 0.009487049 -0.00080243615 -0.01035383 0.035627216 0.019680269 0.017877595 0.042828005
0.013308673 -0.058590136 -0.0030637614 -0.028104762 -0.029381594 -0.018209755 0.02334428 0.026300594
-0.0022480148 -0.00662236 0.00032305496 0.0776608 0.045247026 0.010354305 -0.008544527 -0.017253634
-0.02819143 -0.018162938 -0.0013080668 0.03529923 0.03272684 0.010662732 0.0323673 0.005853911
0.04077101 0.028226951 0.009177642 -0.023916705 0.04502487 0.02931235 0.0005765825 -0.007764458
-0.033351287 0.039352022 0.03746656 0.04768069 0.030663991 0.03080538 -0.009150285 -0.021426015
-0.029067364 -0.0062777875 -0.0047790403 -0.008664611 -0.002114979 -0.00945586 0.033268746 -0.0017716538
0.0043944884 0.03385044 0.007553558 0.002114842 -0.0014606747 0.007050256 0.008742925 0.02881737
0.009116395 -0.006867741 0.010225434 0.04806854 0.02333307 0.035984047 0.010715202 -0.023474162
0.009962622 0.022658464 -0.0010657042 0.020790663 -0.020891456 -0.006388462 -0.016622676 0.02759779
0.023454437 0.037168555 0.024719736 0.031595558 -0.024844062 0.01914292 0.01803245 0.04406213
0.018467957 -0.024360152 -0.018197635 -0.038605936 -0.030549092 -0.012340769 0.030719528 0.05078414
0.022343345 0.004804328 0.012150718 -0.0169943 -0.0012306273 -0.014841596 0.021036284 -0.010176748
0.013187045 -0.017819693 0.0014732648 0.006738497 -0.010612111 0.012384484 -0.015286841 0.009437224
0.02363825 0.023589978 -0.009415022 -0.0007866379 0.003525259 0.016735671 0.01279139 0.00673783
-0.019039467 -0.0072775967 -0.008112865 0.00055898726 0.016960984 0.0061647184 0.013824111 -0.018739015
0.007819319 -0.02187311 0.016801318 -0.010717855 0.014348591 0.0023436174 0.0234058 0.013985014
0.021760436 0.012690822 0.017741276 0.0017415509 0.003258463 -0.011251083 -0.0034043398 0.01631893
0.008591989 -0.0081378985 0.0040923767 -0.012276028 -0.0017824881 -0.0020417161 0.0010368805 0.010423524
-0.0033724457 0.0036591832 0.017997986 -0.011711663 0.015437549 0.022454223 -0.0014120918 -0.0049434938
0.012136577 0.0030231401 -0.017998146 -0.014483576 -0.0066575613 -0.020273667 0.015579516 -0.01831172
-0.011164768 0.021815838 0.0011259485 -0.007360453 -0.019403633 0.01100524 -0.011411462 0.009071661
-0.00684092 -0.0055640694 0.012541579 0.023504185 -0.0050029643 -0.023374889 -0.01509524 0.0078398455

classifier.1.bias f4 [16]
00000000: 5a70 b4bc df08 85bc b97e 3e3c 9677 27bc
00000010: e186 b0bb 9d56 2ebd 2951 6c39 89e0 21bd
00000020: 7e35 f53c 6a75 3ebd 6698 093d a4cf b73b
00000030: caa4 18bc 293e 03bc 8bfa 283d 96a7 80bc
-0.02202623 -0.016239582 0.011626893 -0.010221383 -0.0053871726 -0.04256307 0.00022536948 -0.039520774
0.029932734 -0.046498694 0.033592604 0.0056094695 -0.0093166325 -0.008010426 0.04125456 -0.015704911
